…
Found 6940 images belonging to 21 classes.
Found 11548 images belonging to 21 classes.
[INFO] informações dos dados de treino...

image batch shape:  (32, 64, 64, 3)
label batch shape:  (32, 21)
['A' 'B' 'C' 'D' 'E' 'F' 'G' 'I' 'L' 'M' 'N' 'O' 'P' 'Q' 'R' 'S' 'T' 'U'
 'V' 'W' 'Y']

[INFO] compilando o modelo...


[INFO] imprimindo estrutura do modelo...

Model: "sequential"
_________________________________________________________________
Layer (type)                 Output Shape              Param #   
=================================================================
conv2d (Conv2D)              (None, 64, 64, 16)        448       
_________________________________________________________________
activation (Activation)      (None, 64, 64, 16)        0         
_________________________________________________________________
max_pooling2d (MaxPooling2D) (None, 32, 32, 16)        0         
_________________________________________________________________
dropout (Dropout)            (None, 32, 32, 16)        0         
_________________________________________________________________
conv2d_1 (Conv2D)            (None, 30, 30, 32)        4640      
_________________________________________________________________
activation_1 (Activation)    (None, 30, 30, 32)        0         
_________________________________________________________________
max_pooling2d_1 (MaxPooling2 (None, 15, 15, 32)        0         
_________________________________________________________________
dropout_1 (Dropout)          (None, 15, 15, 32)        0         
_________________________________________________________________
conv2d_2 (Conv2D)            (None, 13, 13, 64)        18496     
_________________________________________________________________
activation_2 (Activation)    (None, 13, 13, 64)        0         
_________________________________________________________________
max_pooling2d_2 (MaxPooling2 (None, 6, 6, 64)          0         
_________________________________________________________________
dropout_2 (Dropout)          (None, 6, 6, 64)          0         
_________________________________________________________________
flatten (Flatten)            (None, 2304)              0         
_________________________________________________________________
dense (Dense)                (None, 64)                147520    
_________________________________________________________________
dropout_3 (Dropout)          (None, 64)                0         
_________________________________________________________________
dense_1 (Dense)              (None, 21)                1365      
_________________________________________________________________
activation_3 (Activation)    (None, 21)                0         
=================================================================
Total params: 172,469
Trainable params: 172,469
Non-trainable params: 0
_________________________________________________________________

[INFO] treinando o modelo...

Epoch 1/50
868/868 - 77s - loss: 1.6608 - acc: 0.4728 - val_loss: 1.0401 - val_acc: 0.6769
Epoch 2/50
868/868 - 78s - loss: 0.7154 - acc: 0.7549 - val_loss: 0.8134 - val_acc: 0.7477
…
