…
...

[INFO] Criando sub-conjuntos de dados...

[INFO] Tempo de execução: 1.7 min

[INFO] Redimensionando intensidade dos pixels...

[INFO] Separando conjuntos e embaralhando dados...

Found 32379 images belonging to 21 classes.
Found 4622 images belonging to 21 classes.
Found 9261 images belonging to 21 classes.
[INFO] Construindo modelo neural...

Model: "sequential_4"
_________________________________________________________________
Layer (type)                 Output Shape              Param #   
=================================================================
conv2d_12 (Conv2D)           (None, 64, 64, 8)         224       
_________________________________________________________________
activation_12 (Activation)   (None, 64, 64, 8)         0         
_________________________________________________________________
max_pooling2d_12 (MaxPooling (None, 32, 32, 8)         0         
_________________________________________________________________
conv2d_13 (Conv2D)           (None, 32, 32, 16)        1168      
_________________________________________________________________
activation_13 (Activation)   (None, 32, 32, 16)        0         
_________________________________________________________________
max_pooling2d_13 (MaxPooling (None, 16, 16, 16)        0         
_________________________________________________________________
conv2d_14 (Conv2D)           (None, 16, 16, 32)        4640      
_________________________________________________________________
activation_14 (Activation)   (None, 16, 16, 32)        0         
_________________________________________________________________
max_pooling2d_14 (MaxPooling (None, 8, 8, 32)          0         
_________________________________________________________________
flatten_4 (Flatten)          (None, 2048)              0         
_________________________________________________________________
dense_8 (Dense)              (None, 16)                32784     
_________________________________________________________________
dense_9 (Dense)              (None, 21)                357       
=================================================================
Total params: 39,173
Trainable params: 39,173
Non-trainable params: 0
_________________________________________________________________

[INFO] Treinando modelo...

Epoch 1/100
506/506 [==============================] - 228s 450ms/step - loss: 2.9733 - acc: 0.1066 - val_loss: 2.7041 - val_acc: 0.2270
Epoch 2/100
506/506 [==============================] - 55s 109ms/step - loss: 2.1863 - acc: 0.3640 - val_loss: 1.7486 - val_acc: 0.4723
…
