…
..

[INFO] Criando sub-conjuntos de dados...

[INFO] Tempo de execução: 1.8 min

[INFO] Redimensionando intensidade dos pixels...

[INFO] Separando conjuntos e embaralhando dados...

Found 32379 images belonging to 21 classes.
Found 4622 images belonging to 21 classes.
Found 9261 images belonging to 21 classes.
[INFO] Construindo modelo neural...

Model: "sequential_11"
_________________________________________________________________
Layer (type)                 Output Shape              Param #   
=================================================================
conv2d_33 (Conv2D)           (None, 64, 64, 8)         224       
_________________________________________________________________
activation_33 (Activation)   (None, 64, 64, 8)         0         
_________________________________________________________________
max_pooling2d_33 (MaxPooling (None, 32, 32, 8)         0         
_________________________________________________________________
conv2d_34 (Conv2D)           (None, 32, 32, 16)        1168      
_________________________________________________________________
activation_34 (Activation)   (None, 32, 32, 16)        0         
_________________________________________________________________
max_pooling2d_34 (MaxPooling (None, 16, 16, 16)        0         
_________________________________________________________________
conv2d_35 (Conv2D)           (None, 16, 16, 32)        4640      
_________________________________________________________________
activation_35 (Activation)   (None, 16, 16, 32)        0         
_________________________________________________________________
max_pooling2d_35 (MaxPooling (None, 8, 8, 32)          0         
_________________________________________________________________
flatten_11 (Flatten)         (None, 2048)              0         
_________________________________________________________________
dense_22 (Dense)             (None, 16)                32784     
_________________________________________________________________
dense_23 (Dense)             (None, 21)                357       
=================================================================
Total params: 39,173
Trainable params: 39,173
Non-trainable params: 0
_________________________________________________________________

[INFO] Treinando modelo...

Epoch 1/100
506/506 [==============================] - 224s 443ms/step - loss: 2.9096 - acc: 0.1474 - val_loss: 2.5068 - val_acc: 0.2676
Epoch 2/100
506/506 [==============================] - 55s 109ms/step - loss: 1.9567 - acc: 0.4401 - val_loss: 1.5882 - val_acc: 0.5316
…
