…
...

[INFO] Criando sub-conjuntos de dados...

[INFO] Tempo de execução: 1.8 min

[INFO] Redimensionando intensidade dos pixels...

[INFO] Separando conjuntos e embaralhando dados...

Found 32379 images belonging to 21 classes.
Found 4622 images belonging to 21 classes.
Found 9261 images belonging to 21 classes.
[INFO] Construindo modelo neural...

Model: "sequential_8"
_________________________________________________________________
Layer (type)                 Output Shape              Param #   
=================================================================
conv2d_24 (Conv2D)           (None, 64, 64, 8)         224       
_________________________________________________________________
activation_24 (Activation)   (None, 64, 64, 8)         0         
_________________________________________________________________
max_pooling2d_24 (MaxPooling (None, 32, 32, 8)         0         
_________________________________________________________________
conv2d_25 (Conv2D)           (None, 32, 32, 16)        1168      
_________________________________________________________________
activation_25 (Activation)   (None, 32, 32, 16)        0         
_________________________________________________________________
max_pooling2d_25 (MaxPooling (None, 16, 16, 16)        0         
_________________________________________________________________
conv2d_26 (Conv2D)           (None, 16, 16, 32)        4640      
_________________________________________________________________
activation_26 (Activation)   (None, 16, 16, 32)        0         
_________________________________________________________________
max_pooling2d_26 (MaxPooling (None, 8, 8, 32)          0         
_________________________________________________________________
flatten_8 (Flatten)          (None, 2048)              0         
_________________________________________________________________
dense_16 (Dense)             (None, 16)                32784     
_________________________________________________________________
dense_17 (Dense)             (None, 21)                357       
=================================================================
Total params: 39,173
Trainable params: 39,173
Non-trainable params: 0
_________________________________________________________________

[INFO] Treinando modelo...

Epoch 1/100
506/506 [==============================] - 220s 436ms/step - loss: 2.8501 - acc: 0.1724 - val_loss: 2.3677 - val_acc: 0.3717
Epoch 2/100
506/506 [==============================] - 55s 109ms/step - loss: 1.6791 - acc: 0.5394 - val_loss: 1.2846 - val_acc: 0.6287ETA: 1s - loss: 1.6932 - acc: 0.5350
…
