…
..

[INFO] Criando sub-conjuntos de dados...

[INFO] Tempo de execução: 1.7 min

[INFO] Redimensionando intensidade dos pixels...

[INFO] Separando conjuntos e embaralhando dados...

Found 32379 images belonging to 21 classes.
Found 4622 images belonging to 21 classes.
Found 9261 images belonging to 21 classes.
[INFO] Construindo modelo neural...

Model: "sequential_10"
_________________________________________________________________
Layer (type)                 Output Shape              Param #   
=================================================================
conv2d_30 (Conv2D)           (None, 64, 64, 8)         224       
_________________________________________________________________
activation_30 (Activation)   (None, 64, 64, 8)         0         
_________________________________________________________________
max_pooling2d_30 (MaxPooling (None, 32, 32, 8)         0         
_________________________________________________________________
conv2d_31 (Conv2D)           (None, 32, 32, 16)        1168      
_________________________________________________________________
activation_31 (Activation)   (None, 32, 32, 16)        0         
_________________________________________________________________
max_pooling2d_31 (MaxPooling (None, 16, 16, 16)        0         
_________________________________________________________________
conv2d_32 (Conv2D)           (None, 16, 16, 32)        4640      
_________________________________________________________________
activation_32 (Activation)   (None, 16, 16, 32)        0         
_________________________________________________________________
max_pooling2d_32 (MaxPooling (None, 8, 8, 32)          0         
_________________________________________________________________
flatten_10 (Flatten)         (None, 2048)              0         
_________________________________________________________________
dense_20 (Dense)             (None, 16)                32784     
_________________________________________________________________
dense_21 (Dense)             (None, 21)                357       
=================================================================
Total params: 39,173
Trainable params: 39,173
Non-trainable params: 0
_________________________________________________________________

[INFO] Treinando modelo...

Epoch 1/100
506/506 [==============================] - 229s 452ms/step - loss: 2.9540 - acc: 0.0801 - val_loss: 2.7714 - val_acc: 0.1101
Epoch 2/100
506/506 [==============================] - 55s 109ms/step - loss: 2.4572 - acc: 0.2049 - val_loss: 2.1870 - val_acc: 0.3118
…
