…
...

[INFO] Criando sub-conjuntos de dados...

[INFO] Tempo de execução: 1.7 min

[INFO] Redimensionando intensidade dos pixels...

[INFO] Separando conjuntos e embaralhando dados...

Found 32379 images belonging to 21 classes.
Found 4622 images belonging to 21 classes.
Found 9261 images belonging to 21 classes.
[INFO] Construindo modelo neural...

Model: "sequential_6"
_________________________________________________________________
Layer (type)                 Output Shape              Param #   
=================================================================
conv2d_18 (Conv2D)           (None, 64, 64, 8)         224       
_________________________________________________________________
activation_18 (Activation)   (None, 64, 64, 8)         0         
_________________________________________________________________
max_pooling2d_18 (MaxPooling (None, 32, 32, 8)         0         
_________________________________________________________________
conv2d_19 (Conv2D)           (None, 32, 32, 16)        1168      
_________________________________________________________________
activation_19 (Activation)   (None, 32, 32, 16)        0         
_________________________________________________________________
max_pooling2d_19 (MaxPooling (None, 16, 16, 16)        0         
_________________________________________________________________
conv2d_20 (Conv2D)           (None, 16, 16, 32)        4640      
_________________________________________________________________
activation_20 (Activation)   (None, 16, 16, 32)        0         
_________________________________________________________________
max_pooling2d_20 (MaxPooling (None, 8, 8, 32)          0         
_________________________________________________________________
flatten_6 (Flatten)          (None, 2048)              0         
_________________________________________________________________
dense_12 (Dense)             (None, 16)                32784     
_________________________________________________________________
dense_13 (Dense)             (None, 21)                357       
=================================================================
Total params: 39,173
Trainable params: 39,173
Non-trainable params: 0
_________________________________________________________________

[INFO] Treinando modelo...

Epoch 1/100
506/506 [==============================] - 223s 441ms/step - loss: 2.8832 - acc: 0.1022 - val_loss: 2.5150 - val_acc: 0.1874
Epoch 2/100
506/506 [==============================] - 57s 112ms/step - loss: 2.0437 - acc: 0.3883 - val_loss: 1.5524 - val_acc: 0.5848
…
