…
..

[INFO] Criando sub-conjuntos de dados...

[INFO] Tempo de execução: 1.8 min

[INFO] Redimensionando intensidade dos pixels...

[INFO] Separando conjuntos e embaralhando dados...

Found 32379 images belonging to 21 classes.
Found 4622 images belonging to 21 classes.
Found 9261 images belonging to 21 classes.
[INFO] Construindo modelo neural...

Model: "sequential_12"
_________________________________________________________________
Layer (type)                 Output Shape              Param #   
=================================================================
conv2d_36 (Conv2D)           (None, 64, 64, 8)         224       
_________________________________________________________________
activation_36 (Activation)   (None, 64, 64, 8)         0         
_________________________________________________________________
max_pooling2d_36 (MaxPooling (None, 32, 32, 8)         0         
_________________________________________________________________
conv2d_37 (Conv2D)           (None, 32, 32, 16)        1168      
_________________________________________________________________
activation_37 (Activation)   (None, 32, 32, 16)        0         
_________________________________________________________________
max_pooling2d_37 (MaxPooling (None, 16, 16, 16)        0         
_________________________________________________________________
conv2d_38 (Conv2D)           (None, 16, 16, 32)        4640      
_________________________________________________________________
activation_38 (Activation)   (None, 16, 16, 32)        0         
_________________________________________________________________
max_pooling2d_38 (MaxPooling (None, 8, 8, 32)          0         
_________________________________________________________________
flatten_12 (Flatten)         (None, 2048)              0         
_________________________________________________________________
dense_24 (Dense)             (None, 16)                32784     
_________________________________________________________________
dense_25 (Dense)             (None, 21)                357       
=================================================================
Total params: 39,173
Trainable params: 39,173
Non-trainable params: 0
_________________________________________________________________

[INFO] Treinando modelo...

Epoch 1/100
506/506 [==============================] - 229s 452ms/step - loss: 2.9006 - acc: 0.1427 - val_loss: 2.4891 - val_acc: 0.3379
Epoch 2/100
506/506 [==============================] - 60s 119ms/step - loss: 1.9905 - acc: 0.4526 - val_loss: 1.5376 - val_acc: 0.5857
…
