…
...

[INFO] Criando sub-conjuntos de dados...

[INFO] Tempo de execução: 1.7 min

[INFO] Redimensionando intensidade dos pixels...

[INFO] Separando conjuntos e embaralhando dados...

Found 32379 images belonging to 21 classes.
Found 4622 images belonging to 21 classes.
Found 9261 images belonging to 21 classes.
[INFO] Construindo modelo neural...

Model: "sequential_5"
_________________________________________________________________
Layer (type)                 Output Shape              Param #   
=================================================================
conv2d_15 (Conv2D)           (None, 64, 64, 8)         224       
_________________________________________________________________
activation_15 (Activation)   (None, 64, 64, 8)         0         
_________________________________________________________________
max_pooling2d_15 (MaxPooling (None, 32, 32, 8)         0         
_________________________________________________________________
conv2d_16 (Conv2D)           (None, 32, 32, 16)        1168      
_________________________________________________________________
activation_16 (Activation)   (None, 32, 32, 16)        0         
_________________________________________________________________
max_pooling2d_16 (MaxPooling (None, 16, 16, 16)        0         
_________________________________________________________________
conv2d_17 (Conv2D)           (None, 16, 16, 32)        4640      
_________________________________________________________________
activation_17 (Activation)   (None, 16, 16, 32)        0         
_________________________________________________________________
max_pooling2d_17 (MaxPooling (None, 8, 8, 32)          0         
_________________________________________________________________
flatten_5 (Flatten)          (None, 2048)              0         
_________________________________________________________________
dense_10 (Dense)             (None, 16)                32784     
_________________________________________________________________
dense_11 (Dense)             (None, 21)                357       
=================================================================
Total params: 39,173
Trainable params: 39,173
Non-trainable params: 0
_________________________________________________________________

[INFO] Treinando modelo...

Epoch 1/100
506/506 [==============================] - 225s 444ms/step - loss: 2.9735 - acc: 0.0985 - val_loss: 2.7667 - val_acc: 0.1986
Epoch 2/100
506/506 [==============================] - 56s 111ms/step - loss: 2.3614 - acc: 0.3006 - val_loss: 2.0781 - val_acc: 0.3940
…
