…
...

[INFO] Criando sub-conjuntos de dados...

[INFO] Tempo de execução: 1.8 min

[INFO] Redimensionando intensidade dos pixels...

[INFO] Separando conjuntos e embaralhando dados...

Found 32379 images belonging to 21 classes.
Found 4622 images belonging to 21 classes.
Found 9261 images belonging to 21 classes.
[INFO] Construindo modelo neural...

Model: "sequential_7"
_________________________________________________________________
Layer (type)                 Output Shape              Param #   
=================================================================
conv2d_21 (Conv2D)           (None, 64, 64, 8)         224       
_________________________________________________________________
activation_21 (Activation)   (None, 64, 64, 8)         0         
_________________________________________________________________
max_pooling2d_21 (MaxPooling (None, 32, 32, 8)         0         
_________________________________________________________________
conv2d_22 (Conv2D)           (None, 32, 32, 16)        1168      
_________________________________________________________________
activation_22 (Activation)   (None, 32, 32, 16)        0         
_________________________________________________________________
max_pooling2d_22 (MaxPooling (None, 16, 16, 16)        0         
_________________________________________________________________
conv2d_23 (Conv2D)           (None, 16, 16, 32)        4640      
_________________________________________________________________
activation_23 (Activation)   (None, 16, 16, 32)        0         
_________________________________________________________________
max_pooling2d_23 (MaxPooling (None, 8, 8, 32)          0         
_________________________________________________________________
flatten_7 (Flatten)          (None, 2048)              0         
_________________________________________________________________
dense_14 (Dense)             (None, 16)                32784     
_________________________________________________________________
dense_15 (Dense)             (None, 21)                357       
=================================================================
Total params: 39,173
Trainable params: 39,173
Non-trainable params: 0
_________________________________________________________________

[INFO] Treinando modelo...

Epoch 1/100
506/506 [==============================] - 222s 438ms/step - loss: 2.9506 - acc: 0.0980 - val_loss: 2.7216 - val_acc: 0.1984
Epoch 2/100
506/506 [==============================] - 55s 109ms/step - loss: 2.3203 - acc: 0.2882 - val_loss: 1.9506 - val_acc: 0.3775
…
