…
..

[INFO] Criando sub-conjuntos de dados...

[INFO] Tempo de execução: 3.3 min

[INFO] Redimensionando intensidade dos pixels...

[INFO] Separando conjuntos e embaralhando dados...

Found 32379 images belonging to 21 classes.
Found 4622 images belonging to 21 classes.
Found 9261 images belonging to 21 classes.
[INFO] Construindo modelo neural...

Model: "sequential_13"
_________________________________________________________________
Layer (type)                 Output Shape              Param #   
=================================================================
conv2d_39 (Conv2D)           (None, 64, 64, 8)         224       
_________________________________________________________________
activation_39 (Activation)   (None, 64, 64, 8)         0         
_________________________________________________________________
max_pooling2d_39 (MaxPooling (None, 32, 32, 8)         0         
_________________________________________________________________
conv2d_40 (Conv2D)           (None, 32, 32, 16)        1168      
_________________________________________________________________
activation_40 (Activation)   (None, 32, 32, 16)        0         
_________________________________________________________________
max_pooling2d_40 (MaxPooling (None, 16, 16, 16)        0         
_________________________________________________________________
conv2d_41 (Conv2D)           (None, 16, 16, 32)        4640      
_________________________________________________________________
activation_41 (Activation)   (None, 16, 16, 32)        0         
_________________________________________________________________
max_pooling2d_41 (MaxPooling (None, 8, 8, 32)          0         
_________________________________________________________________
flatten_13 (Flatten)         (None, 2048)              0         
_________________________________________________________________
dense_26 (Dense)             (None, 16)                32784     
_________________________________________________________________
dense_27 (Dense)             (None, 21)                357       
=================================================================
Total params: 39,173
Trainable params: 39,173
Non-trainable params: 0
_________________________________________________________________

[INFO] Treinando modelo...

Epoch 1/100
506/506 [==============================] - 248s 490ms/step - loss: 2.8863 - acc: 0.1375 - val_loss: 2.5920 - val_acc: 0.2138
Epoch 2/100
506/506 [==============================] - 55s 108ms/step - loss: 2.0453 - acc: 0.3977 - val_loss: 1.5955 - val_acc: 0.5563
…
